Experiments/sad-maha_100.0eta_20241130_1645.pth (torch, 9844 bytes, 7 tensors)

weight f4 [16, 30]
-0.034521293 -0.13968386 0.2227625 -0.09917208 -0.059712287 0.009092774 -0.037859242 -0.07008579
0.053160004 0.082796976 0.19129127 0.0008356529 0.0034665612 0.0099885315 -0.14941697 0.026862826
-0.076340035 -0.08858772 -0.07143443 0.026730761 0.09110282 0.044366837 0.01936296 -0.05855183
-0.00815207 0.021936392 -0.017964378 0.043794096 -0.04784126 0.087453395 0.030387037 -0.10197079
0.09029094 0.21877155 -0.07630627 0.11182069 -0.061944555 -0.055049736 -0.109188706 -0.08602972
-0.1445316 -0.052053604 -0.030826673 -0.069719896 0.09457257 -0.012686516 0.018741272 0.083050266
0.07823416 -0.06608811 -0.08057122 0.018202323 0.07494383 -0.0077906772 0.06027965 -0.0479076
0.07502378 0.04492278 -0.037730422 -0.07482383 -0.019601127 -0.2610788 -0.12417904 0.007068338
0.027474675 0.110873096 0.061825972 0.010973401 -0.15798599 -0.03121894 -0.16348235 0.0175526
-0.10488436 -0.051647425 -0.043663174 -0.022683281 0.10822359 -0.07797292 0.0072171623 -0.13923623
-0.112460025 -0.13491462 -0.029654376 0.060327746 -0.00616104 0.061641064 0.09481274 0.05958215
-0.09408033 -0.09418002 -0.054999504 0.140567 -0.14355701 -0.042213857 0.13516621 -0.05452408
-0.039099652 0.07252146 -0.052399684 -0.093549594 -0.14196065 0.042388942 0.042872958 -0.15470944
-0.2567649 -0.057146054 -0.028811568 -0.1731608 -0.03511415 0.0053252648 -0.03399871 0.08045146
-0.030132838 0.008126885 0.07016979 -0.010204666 -0.061899938 0.026235899 -0.048905645 -0.052881848
-0.06263644 -0.15089247 0.19489878 -0.100184515 -0.029330185 0.0886078 0.0070577757 -0.104924954
0.009343449 0.0175351 0.17239544 0.021258265 0.005413269 -0.027935794 -0.18582378 -0.014840807
-0.037129346 -0.1001616 -0.030544583 0.06398032 -0.015002215 -0.04927923 0.071477726 0.0362675
-0.035937823 0.027146202 0.111765444 0.053931918 -0.0036959 0.11271556 0.029084243 0.25663722
-0.06733868 0.008198914 0.02654525 -0.16396832 -0.070778035 -0.03614215 0.058823183 0.035162374
-0.04137467 0.02591266 0.10289996 -0.06039064 0.04318801 0.047998488 -0.0023110898 0.03617693
-0.021890607 0.06913924 0.11153265 -0.040346045 -0.072774194 0.020184798 0.009697776 0.037436422
-0.034635004 0.13733491 0.09355722 -0.06522982 -0.058268327 0.036685985 0.19824491 -0.0917539
0.07452579 -0.10788006 0.051249955 0.028444469 -0.104175396 0.207584 0.12099628 -0.03503977
-0.039525118 0.04013284 0.11658542 0.020307073 -0.046967335 0.107040055 0.10943038 -0.06062209
0.025519932 0.06966221 -0.047059216 -0.12855081 0.033937134 -0.09021948 0.066769026 -0.12059517
-0.0041739456 0.055835467 0.036557995 0.20014112 -0.16623715 0.020636762 0.051733475 -0.07466945
-0.12487862 -0.1849301 -0.067483015 0.08955773 0.027890405 0.036897246 0.11581387 -0.054079507
0.15175343 0.053493954 -0.001557001 0.04873736 -0.050215997 0.12595458 0.082070775 -0.055177595
-0.034533106 -0.028292835 -0.0017849487 -0.02072925 -0.061109662 0.029692827 -0.13124292 -0.11877247
0.0723245 -0.13200319 0.2579946 0.05264168 0.056516565 0.08079752 -0.042141195 0.019852757
-0.039173715 0.10423536 0.10851631 0.07710797 -0.026478257 -0.016324723 -0.16358775 -0.080645606
00000000: 3366 0dbd 4909 0fbe da1b 643e bb1a cbbd
00000010: df94 74bd dcf9 143c 4b12 1bbd 2389 8fbd
00000020: 4ebe 593d 7691 a93d dce1 433e b80f 5b3a
00000030: 3f2f 633b f0a6 233c c300 19be 6e0f dc3c
00000040: 2a58 9cbd 7b6d b5bd 374c 92bd 78fa da3c
00000050: 1e94 ba3d 00ba 353d 129f 9e3c 0bd4 6fbd
00000060: 4390 05bc f3b3 b33c 082a 93bc 7061 333d
00000070: 32f5 43bd c41a b33d 3cee f83c 10d6 d0bd
00000080: 75ea b83d a605 603e 7646 9cbd 3f02 e53d
00000090: 93b9 7dbd d57b 61bd 549e dfbd 5a30 b0bd
000000a0: 1700 14be 2936 55bd 3888 fcbc 4ec9 8ebd
000000b0: 43af c13d 1bdb 4fbc 4c87 993c 4216 aa3d
000000c0: 3b39 a03d 3459 87bd 8602 a5bd 0a1d 953c
000000d0: 277c 993d f048 ffbb cbe7 763d c23a 44bd
000000e0: 11a6 993d f300 383d 378b 1abd 3c3d 99bd
000000f0: 8b92 a0bc 1fac 85be 9551 febd 849d e73b
00000100: 9212 e13c 6f11 e33d 3b3d 7d3d c8c9 333c
00000110: 14c7 21be ddbe ffbc eb67 27be 78ca 8f3c
00000120: 9dcd d6bd 408c 53bd 28d8 32bd 4ad2 b9bc
00000130: 54a4 dd3d 44b0 9fbd f27d ec3b f193 0ebe
00000140: 7151 e6bd 0f27 0abe bced f2bc 3a1a 773d
00000150: 8de2 c9bb 577b 7c3d 2f2d c23d 6a0c 743d
00000160: 30ad c0bd 74e1 c0bd 2947 61bd ccf0 0f3e
00000170: 9c00 13be 70e8 2cbd 0369 0a3e a454 5fbd
00000180: f526 20bd 2286 943d 0da1 56bd ee96 bfbd
00000190: 225e 11be 07a0 2d3d 8e9b 2f3d 276c 1ebe
000001a0: b076 83be fb11 6abd 3d06 ecbc 1151 31be
000001b0: dbd3 0fbd 8f7f ae3b 3b42 0bbd bcc3 a43d
000001c0: 24d9 f6bc a026 053c 2eb5 8f3d 7931 27bc
000001d0: ca8a 7dbd abec d63c 4951 48bd a39a 58bd
000001e0: 8947 80bd 8e83 1abe 8c93 473e 8a2d cdbd
000001f0: db45 f0bc 0278 b53d ea44 e73b e5e2 d6bd
00000200: 4415 193c c5a5 8f3c 6e88 303e d025 ae3c
00000210: cb61 b13b 9bd9 e4bc 9748 3ebe db26 73bc
00000220: f114 18bd 8621 cdbd a238 fabc 1d08 833d
00000230: dacb 75bc 05d9 49bd ea62 923d 3b8d 143d
00000240: 8a33 13bd b661 de3c 48e5 e43d b7e7 5c3d
00000250: ea36 72bb 6ad7 e63d 1442 ee3c f465 833e
00000260: dde8 89bd bd54 063c 6d75 d93c 50e7 27be
00000270: 13f4 90bd cb09 14bd 94f0 703d 6c06 103d
00000280: 7c78 29bd c946 d43c 37bd d23d 2d5c 77bd
00000290: e9e5 303d 109a 443d a775 17bb 432e 143d
000002a0: ee53 b3bc e098 8d3d 3b6b e43d e541 25bd
000002b0: a30a 95bd 975a a53c 6ce3 1e3c ef56 193d
000002c0: 6fdd 0dbd 86a1 0c3e ee9a bf3d 3697 85bd
000002d0: c5aa 6ebd 0b44 163d b700 4b3e 78e9 bbbd
000002e0: faa0 983d 39f0 dcbd 79eb 513d 6004 e93c
000002f0: e959 d5bd e690 543e e6cc f73d dd85 0fbd
00000300: 17e5 21bd 5562 243d 56c4 ee3d 055b a63c
00000310: d260 40bd d137 db3d 091d e03d de4e 78bd
00000320: 2d0f d13c 10ab 8e3d 2ac1 40bd d3a2 03be
00000330: aa01 0b3d fec4 b8bd 33be 883d 9afa f6bd
00000340: 98c5 88bb bbb3 643d d6bd 153d cbf1 4c3e
00000350: 123a 2abe 6d0e a93c 7be6 533d 4cec 98bd
00000360: 5dc0 ffbd 515e 3dbe 8934 8abd 0b6a b73d
00000370: 6b7a e43c 9121 173d d32f ed3d 7982 5dbd
00000380: 4065 1b3e 7a1c 5b3d 4914 ccba d3a0 473d
00000390: 4aaf 4dbd 3dfa 003e b914 a83d e701 62bd
000003a0: 9672 0dbd 60c6 e7bc f1f4 e9ba 63d0 a9bc
000003b0: 204e 7abd 5f3e f33c 8b64 06be fb3e f3bd
000003c0: de1e 943d d82b 07be de17 843e cd9e 573d
000003d0: ea7d 673d 2c79 a53d 3f9c 2cbd 40a2 a23c
000003e0: 9e74 20bd 5979 d53d cd3d de3d c9ea 9d3d
000003f0: eee8 d8bc 6dbb 85bc 8c83 27be 8629 a5bd

running_mean f4 [16]
0.005442868 -0.0027144768 -0.00039739496 -0.0050993706 0.006113974 -0.0039399876 4.6694982e-05 -0.002601409
0.0038785469 0.0020118135 -0.001097773 0.0026684634 0.0049655535 -0.0019406235 0.0033608475 -0.0022334366
00000000: 165a b23b 5de5 31bb 7359 d0b9 9f18 a7bb
00000010: bb57 c83b 031b 81bb 5bda 4338 677c 2abb
00000020: 382f 7e3b a1d8 033b 26e3 8fba 63e1 2e3b
00000030: 15b6 a23b 855c feba aa41 5c3b d95e 12bb

running_var f4 [16]
0.32370633 0.3263444 0.44555166 0.32622296 0.2925693 0.37800094 0.31410128 0.41262186
0.3601087 0.30429953 0.24337018 0.41036928 0.40978056 0.4696339 0.4023715 0.44950846
00000000: d6bc a53e 9d16 a73e 591f e43e b206 a73e
00000010: a5cb 953e 5789 c13e e2d1 a03e 2c43 d33e
00000020: 2b60 b83e 26cd 9b3e 0836 793e ec1b d23e
00000030: c2ce d13e db73 f03e a303 ce3e f925 e63e

weight f4 [16, 16]
-0.2290698 -0.08103945 -0.18725286 0.124732025 -0.30713627 0.004097795 -0.15231301 -0.047583684
-0.1634135 -0.09688021 -0.12989561 0.113813914 -0.1581155 0.2244217 -0.036192287 -0.18796273
0.20349461 -0.05282029 0.0721734 -0.18532047 0.123916306 -0.29343286 -0.026135882 -0.35313454
-0.03362585 0.04106852 0.18094634 0.04600038 -0.03553307 0.064236715 0.20229508 -0.08496952
0.11551187 0.06356088 0.0946788 0.055453718 0.046288043 0.111589976 -0.21775013 -0.41867375
0.031885 0.14489242 0.10317667 0.061737433 0.1105241 0.0926054 0.20147094 -0.21534799
0.17699979 0.08087516 -0.110478416 -0.0659341 0.27584544 0.13531825 0.045091443 -0.24124943
0.21515535 0.026215296 0.017091108 0.14557688 0.043701846 0.13908502 0.22691233 0.01686464
-0.13314478 0.042575892 -0.06210461 -0.16956402 -0.121025 -0.04904371 0.13802508 0.13763148
-0.14941853 -0.13423863 -0.14093028 -0.29956642 -0.1376671 0.0381418 -0.2565048 -0.03477253
-0.25381464 -0.25832868 0.10534096 0.06475138 -0.32998428 0.11401049 -0.20809712 -0.23268618
-0.23241666 -0.21340859 -0.2742782 0.02628341 -0.18323451 0.26394886 0.1810329 -0.22872742
0.24320419 -0.01661694 0.14715523 -0.08608786 0.24096283 0.20433962 0.14306988 -0.14677738
0.20516787 0.013702357 -0.04624125 0.15053007 0.027019195 -0.09938179 0.15310228 -0.19056965
-0.31551483 -0.16493589 -0.18044302 -0.1928008 -0.31504938 0.16562271 -0.06502626 -0.1344197
-0.16356847 -0.14512867 0.017297305 -0.08099514 0.13743599 0.034898072 0.012725163 0.1403423
0.2996491 -0.057414897 0.023226433 0.023088956 0.1934699 0.2285737 0.060973242 -0.18387224
0.24053146 -0.059566572 0.07954317 0.26195994 0.13886365 -0.099588215 0.26970553 -0.06281034
-0.07384823 -0.091536276 -0.2265971 0.037250917 0.055449534 0.09721036 -0.057297893 -0.03008382
0.0120539665 0.050389875 0.14283437 -0.08384094 0.09030795 -0.13202213 0.12244623 -0.21243718
0.04303126 0.033837855 0.014249949 0.044862285 0.07209412 -0.31841284 -0.02037 -0.23309773
-0.038777158 0.069628336 0.055957552 -0.022374246 -0.057306025 -0.1380895 0.053849436 -0.020856978
0.0047300393 -0.03345255 0.13699473 -0.11712069 -0.15022051 -0.0768274 -0.19959015 -0.056613736
-0.13017155 0.23701997 0.060332306 -0.25594777 0.20236684 0.10948724 0.097524874 -0.23404258
-0.22995843 0.075127736 0.0074640037 -0.07068607 0.045061957 0.031761795 -0.18615638 -0.13734029
-0.1318222 0.14931141 -0.045224022 -0.23478223 -0.06994027 -0.02945222 -0.17330143 -0.05162274
0.14249656 -0.04136331 -0.30441368 0.13510601 -0.30600697 0.13338685 0.10694357 0.00036956157
0.04633087 -0.08516644 -0.08397155 0.12105262 0.13962194 0.10315264 -0.19402708 -0.31192803
0.036740325 0.059697602 0.029255675 -0.18108858 -0.19507629 -0.21233281 0.03372615 -0.118818246
0.16901526 -0.07193064 -0.14702997 0.13500203 0.02701482 -0.4570446 -0.14707184 0.07107352
0.09949227 -0.04877128 -0.28033057 0.037725653 -0.25866342 0.07715775 0.15905952 0.04209633
-0.19837043 -0.14691266 -0.16107863 -0.14764331 0.025338594 0.14086297 0.02811044 -0.27567962
00000000: 4691 6abe 03f8 a5bd 37bf 3fbe 8173 ff3d
00000010: f740 9dbe cc46 863b f1f7 1bbe 1ce7 42bd
00000020: de55 27be 2269 c6bd 5b03 05be 4517 e93d
00000030: 08e9 21be cdce 653e 5d3e 14bd 4d79 40be
00000040: e460 503e 175a 58bd a6cf 933d a6c4 3dbe
00000050: d5c7 fd3d d53c 96be eb1a d6bc 0dce b4be
00000060: 42bb 09bd 7737 283d ff49 393e e56a 3c3d
00000070: 208b 11bd 8a8e 833d 7126 4f3e 8004 aebd
00000080: 7d91 ec3d 352c 823d f5e6 c13d 7023 633d
00000090: 8898 3d3d 4989 e43d e4f9 5ebe 685c d6be
000000a0: d999 023d ae5e 143e 4a4e d33d 64e0 7c3d
000000b0: 765a e23d e6a7 bd3d 664e 4e3e 2f84 5cbe
000000c0: 6f3f 353e e0a1 a53d 8242 e2bd 7508 87bd
000000d0: 9d3b 8d3e de90 0a3e ceb1 383d 170a 77be
000000e0: af51 5c3e 76c1 d63c a702 8c3c 1b12 153e
000000f0: b500 333d 4e6c 0e3e b55b 683e b727 8a3c
00000100: 1b57 08be 0f64 2e3d 6761 7ebd 31a2 2dbe
00000110: f5db f7bd 0fe2 48bd 7256 0d3e 44ef 0c3e
00000120: 2c01 19be da75 09be 0750 10be c560 99be
00000130: 9bf8 0cbe 933a 1c3d 9954 83be a46d 0ebd
00000140: fef3 81be a843 84be 00bd d73d 5f9c 843d
00000150: b3f3 a8be 557e e93d 6917 55be 4945 6ebe
00000160: a2fe 6dbe c887 5abe 316e 8cbe 4e50 d73c
00000170: d4a1 3bbe 4e24 873e b060 393e 8537 6abe
00000180: 850a 793e 4020 88bc dcaf 163e d54e b0bd
00000190: f6be 763e 683e 513e e980 123e cf4c 16be
000001a0: 8717 523e da7f 603c 7767 3dbd 8e24 1a3e
000001b0: 5c57 dd3c ae88 cbbd d8c6 1c3e b124 43be
000001c0: 298b a1be f4e4 28be 0ec6 38be 936d 45be
000001d0: 274e a1be 0099 293e 7d2c 85bd 51a5 09be
000001e0: 7e7e 27be 9c9c 14be 14b3 8d3c c8e0 a5bd
000001f0: 05bc 0c3e 48f1 0e3d 347d 503c e4b5 0f3e
00000200: 9b6b 993e e22b 6bbd 5c45 be3c 0d25 bd3c
00000210: f91c 463e 390f 6a3e 14bf 793d 0149 3cbe
00000220: e14d 763e 14fc 73bd 88e7 a23d 9d1f 863e
00000230: 4632 0e3e e8f4 cbbd d816 8a3e b5a2 80bd
00000240: be3d 97bd 5f77 bbbd 1209 68be 6b94 183d
00000250: 0d1f 633d 3a16 c73d 32b1 6abd 5872 f6bc
00000260: 007e 453c 9d65 4e3d 2c43 123e ccb4 abbd
00000270: 60f3 b83d cf30 07be 17c5 fa3d 2289 59be
00000280: 8c41 303d 9099 0a3d 9e78 693c 84c1 373d
00000290: 15a6 933d 0207 a3be fcde a6bc 2cb1 6ebe
000002a0: ccd4 1ebd 4d99 8e3d bf33 653d 324a b7bc
000002b0: b9b9 6abd 5567 0dbe 3a91 5c3d 41dc aabc
000002c0: 72fe 9a3b 8b05 09bd 5948 0c3e f9dc efbd
000002d0: 68d3 19be af57 9dbd 5c61 4cbe cee3 67bd
000002e0: b14b 05be 5db5 723e 021f 773d 960b 83be
000002f0: 4139 4f3e d93a e03d 1fbb c73d dca8 6fbe
00000300: 397a 6bbe 92dc 993d 9a94 f43b dcc3 90bd
00000310: e392 383d a818 023d c79f 3ebe efa2 0cbe
00000320: 66fc 06be 17e5 183e d33c 39bd c16a 70be
00000330: d83c 8fbd c845 f1bc ee75 31be 5e72 53bd
00000340: 9eea 113e 936c 29bd 1cdc 9bbe 3b59 0a3e
00000350: f2ac 9cbe 9096 083e 3b05 db3d b7c1 c139
00000360: 70c5 3d3d be6b aebd 47f9 abbd 70ea f73d
00000370: 0ef9 0e3e b141 d33d 09af 46be 08b5 9fbe
00000380: 067d 163d 7985 743d 99a9 ef3c 496f 39be
00000390: 14c2 47be c66d 59be 6e24 0a3d fb56 f3bd
000003a0: 5612 2d3e 5f50 93bd 068f 16be f93d 0a3e
000003b0: 2f4e dd3c c001 eabe 009a 16be fe8e 913d
000003c0: 9ac2 cb3d 65c4 47bd 7d87 8fbe 3786 1a3d
000003d0: 886f 84be e204 9e3d 80e0 223e 346d 2c3d
000003e0: 9e21 4bbe 4670 16be ccf1 24be cf2f 17be
000003f0: e292 cf3c 623e 103e de47 e63c e125 8dbe

running_mean f4 [16]
-0.40212795 -0.096890114 0.11835204 0.3491378 -0.41710296 -0.5409311 0.2814631 -0.39635208
0.40966275 -0.07992092 -0.19222713 -0.11272038 -0.32323578 -0.11544997 -0.36530152 -0.28983927
00000000: b7e3 cdbe 536e c6bd 8e62 f23d 31c2 b23e
00000010: 858e d5be 767a 0abf ee1b 903e a9ee cabe
00000020: 51bf d13e 94ad a3bd 30d7 44be f1d9 e6bd
00000030: 297f a5be 0971 ecbd cd08 bbbe d065 94be

running_var f4 [16]
0.6920891 0.41014946 0.21237391 0.60000795 0.56592554 0.7793658 0.6547205 0.51981694
0.97617763 0.12594093 0.13945088 0.15378253 0.3717533 0.43283984 0.16996619 0.51184154
00000000: c02c 313f 1cff d13e 8c78 593e 1f9a 193f
00000010: 7fe0 103f 8484 473f c39b 273f b912 053f
00000020: c7e6 793f a9f6 003e 36cc 0e3e 2b79 1d3e
00000030: 7356 be3e 2f9d dd3e 9e0b 2e3e 0c08 033f

weight f4 [8, 16]
0.18193696 -0.09351943 0.0709161 0.16502902 0.06573162 0.029428601 -0.25237954 0.15445691
0.10604469 -0.06704123 0.18002097 0.07220403 -0.08756192 0.16189872 0.12266924 -0.0879221
-0.01785123 0.114876635 -0.019346196 -0.020281723 0.021213131 0.033010144 7.9983285e-05 -0.123870194
-0.028493145 0.04441341 -0.086619206 -0.0027182677 0.084624186 -0.088942125 0.048945088 0.13320804
0.18260516 0.17241019 0.069353215 0.20053747 -0.03382492 0.03257474 -0.16043924 0.19108546
-0.13984923 -0.12748058 -0.11543568 0.04610572 0.0025427635 0.08425471 0.097402014 -0.16403365
-0.0922909 0.088718124 0.09071964 0.0658817 -0.014552995 0.16429864 -0.016106484 -0.058821578
-0.14083284 0.04395525 -0.030606065 -0.024127102 0.15662828 0.060318775 0.13989985 0.16953164
-0.1928794 0.07755959 -0.13487394 0.024899 -0.038110483 -0.058595914 0.0092426445 0.03718017
0.01123706 -0.11081383 -0.22467938 0.0032890048 -0.121283345 -0.1454431 -0.24482587 -0.22135496
-0.15228657 0.18337813 0.06815781 0.0040244437 -0.05333407 0.114343084 0.03596951 0.0024396419
-0.16151085 -0.001445696 -0.14728673 -0.03467218 0.15403493 -0.020212868 0.093282 0.17494443
-0.06742666 -0.10892004 -0.025139421 0.0022435926 0.012731226 -0.17457426 0.14147116 0.09009474
-0.0996551 0.030256782 0.13724272 -0.043380246 -0.047378246 -0.0055122147 -0.067284286 0.10259669
-0.12162318 -0.08493485 -0.12020653 0.0890563 0.20035039 0.09932844 0.10612279 -0.06407802
-0.119051404 0.057682455 0.1904274 0.048747983 -0.13349971 0.096674256 -0.036469948 -0.12005055
00000000: af4d 3a3e 1d87 bfbd 763c 913d 5efd 283e
00000010: 4d9e 863d 4014 f13c e437 81be f429 1e3e
00000020: f52d d93d ea4c 89bd 6b57 383e b5df 933d
00000030: aa53 b3bd c7c8 253e 033a fb3d 8110 b4bd
00000040: be3c 92bc 7144 eb3d ea7b 9ebc db25 a6bc
00000050: 29c7 ad3c a535 073d b3bc a738 a8af fdbd
00000060: 756a e9bc d6ea 353d 6965 b1bd f724 32bb
00000070: 724f ad3d 4a27 b6bd a57a 483d b067 083e
00000080: d9fc 3a3e 4c8c 303e 0f09 8e3d b259 4d3e
00000090: 008c 0abd 176d 053d 2f4a 24be e8ab 433e
000000a0: a334 0fbe 458a 02be 8b69 ecbd 5ad9 3c3d
000000b0: 7ea4 263b bc8d ac3d b57a c73d 70f8 27be
000000c0: 0303 bdbd d9b1 b53d 38cb b93d fcec 863d
000000d0: af6f 6ebc e73d 283e bff1 83bc e5ee 70bd
000000e0: 7c36 10be 6c0a 343d 92b9 fabc 33a6 c5bc
000000f0: 2a63 203e d210 773d e841 0f3e b499 2d3e
00000100: 2d82 45be 90d7 9e3d 651c 0abe fdf8 cb3c
00000110: bd19 1cbd 4502 70bd 766e 173c 3c4a 183d
00000120: a51b 383c 5cf2 e2bd 5a12 66be 588c 573b
00000130: 6763 f8bd 09ef 14be a2b3 7abe e0aa 62be
00000140: 03f1 1bbe 7ac7 3b3e 5296 8b3d 7bdf 833b
00000150: d374 5abd b52c ea3d c454 133d 66e2 1f3b
00000160: 1a63 25be 827d bdba 55d2 16be 6a04 0ebd
00000170: 55bb 1d3e 7595 a5bc a20a bf3d a224 333e
00000180: fd16 8abd 7811 dfbd 30f1 cdbc 3d09 133b
00000190: a296 503c 98c3 32be d1dd 103e 9783 b83d
000001a0: f917 ccbd 12dd f73c 5b89 0c3e 7caf 31bd
000001b0: b10f 42bd cf9f b4bb 58cc 89bd 371e d23d
000001c0: 9315 f9bd 53f2 adbd d72e f6bd 2663 b63d
000001d0: a728 4d3e b66c cb3d e856 d93d 563b 83bd
000001e0: 39d1 f3bd 7044 6c3d 66ff 423e f7ab 473d
000001f0: 26b4 08be 27fd c53d 8361 15bd 10dd f5bd
