Experiments/sad_10.0eta_20241130_1642.pth (torch, 9766 bytes, 7 tensors)

weight f4 [16, 30]
000000 5b f8 ed 3c 0a 75 50 3d 5f 04 e7 bd 2f 3a 80 bc
       0.02904909 0.050892867 -0.112801306 -0.015652744
000010 98 6f a6 3d f3 cd 2c 3d fd 55 39 3e 49 26 78 3d
       0.081267536 0.042188596 0.18099208 0.060583387
000020 88 89 0b be 94 20 a6 bd 3f 0b 81 3c a6 51 83 bd
       -0.13626683 -0.081116825 0.015752433 -0.064120576
000030 7f fc 2e 3e b7 aa 13 be 80 0d 00 3e 8b af fc bd
       0.17088507 -0.14420591 0.1250515 -0.1233817
000040 c0 bc 17 be 24 92 7a bc 2c 3a 74 3d 07 ef 20 bd
       -0.14818096 -0.015293632 0.05962579 -0.039290454
000050 6b 84 86 3d 7f ad 00 3d f6 7a 8c bd f7 ad 32 bc
       0.065682255 0.03141546 -0.068593904 -0.010905734
000060 ce 92 c2 bd d7 9d 98 bc b7 e3 6f 3d c0 a2 e9 3c
       -0.09500657 -0.018629951 0.058566775 0.028519988
000070 0a 62 c0 3c 57 df cb bd 8a 6a 0d 3e 29 5d 25 3e
       0.023484249 -0.09954708 0.13810173 0.16148819
000080 94 13 8b 3c 90 aa 70 3c d9 7e db 3c 24 74 75 3e
       0.016977109 0.014689103 0.026793884 0.23970085
000090 bb 52 2c 3d c3 d8 f1 bd 44 0f 14 be cc 0f ec 3d
       0.042071085 -0.11808922 -0.14458948 0.115264505
0000a0 c8 01 d9 bc cf 41 24 3d 42 8f 65 bd e7 15 d7 3d
       -0.026490107 0.040101822 -0.056044824 0.105022244
0000b0 00 35 01 3e fc 4d 40 bd 0f fd 18 3d 88 3e 2a 3e
       0.12617874 -0.04694937 0.03735071 0.16625416
0000c0 04 c8 d7 bd d6 1b d3 bd 5c e9 70 3d 72 dc 0d be
       -0.10536197 -0.10308044 0.0588163 -0.13853624
0000d0 25 fc 15 3e 64 a5 02 bd 4f 54 0b 3d e7 96 b5 bd
       0.14646967 -0.03189601 0.03401595 -0.08866673
0000e0 ba e3 bd 3d 52 df 19 3c f3 7e 75 bd ef da 4b 3d
       0.09271951 0.009391623 -0.05993552 0.04976934
0000f0 d3 94 f0 bd 24 b1 4f 3d 86 a6 87 3d 8c 44 24 3e
       -0.11747136 0.050706044 0.06623559 0.16041774
000100 c8 7b a4 3d 61 42 be bd 99 11 08 bb 2f 5b ea 3d
       0.08031422 -0.092900045 -0.0020762442 0.11443173
000110 51 23 53 3d 05 31 83 bd 7b c7 1a be 93 fc c3 3d
       0.051547352 -0.06405834 -0.15115158 0.09569659
000120 bb 61 14 be d3 01 f6 bd 81 b0 1f be 46 d0 df bc
       -0.14490406 -0.12012067 -0.15594675 -0.027320992
000130 f9 b3 f0 3c 42 58 57 bd 5e 6a 7f 3c 06 3a 27 bd
       0.029382693 -0.052574404 0.015589325 -0.04082682
000140 a5 33 fa 3d b1 6e 17 bc d7 7f 97 bd 73 68 64 bd
       0.12216882 -0.0092426995 -0.073974304 -0.055763673
000150 3c 54 3a 3e c6 42 cc 3d 73 7a 8a bd db 6b ac 3b
       0.18196195 0.099736735 -0.067616366 0.005261881
000160 a9 0d c8 3d 5f b7 f1 bb 66 3e 15 be 0c c5 e8 bd
       0.097682305 -0.007376596 -0.14574584 -0.11365709
000170 86 0f a6 bd 77 38 24 bd 5e da 84 3d 6e 07 b7 3d
       -0.081084296 -0.04009291 0.06486963 0.08936964
000180 dd ff 11 bd 1b c0 72 bd 68 6c a6 bc 08 15 38 be
       -0.0356444 -0.059265237 -0.020315364 -0.17976773
000190 18 5c 4a 3e 67 f5 fb bc bb d0 36 bd 62 e1 08 bd
       0.19761693 -0.030756665 -0.044632655 -0.033418067
0001a0 ae ef c6 bd 22 d4 0f be 2a 64 38 be 92 9f bd bd
       -0.09713684 -0.14045766 -0.1800696 -0.09258951
0001b0 27 46 06 3e c5 a6 df 3d e6 6f 00 3d d8 d7 e1 3c
       0.13112698 0.10920481 0.031356715 0.027568743
0001c0 fc e7 ce 3d b9 ae b2 3a 33 ec 29 be 69 2e ec 3c
       0.10102841 0.0013632394 -0.16594009 0.028830724
0001d0 61 fc f0 3d 92 91 40 bc 26 67 41 3c a2 23 77 bd
       0.117668875 -0.011753457 0.011804378 -0.060336716
0001e0 81 d0 15 be 93 28 7a 3d 94 42 50 3c 34 02 10 3d
       -0.14630319 0.06107385 0.012711186 0.03515835
0001f0 5f ff 02 3e 6b b9 15 3e 19 e2 cc 3d 76 fd 6a bd
       0.12792729 0.14621513 0.10004062 -0.057370625
000200 a7 5a 06 be a5 44 5b 3e a6 fb 29 bd aa 46 d3 3d
       -0.13120519 0.21412905 -0.041499756 0.103162125
000210 cc 6f 8e be ed 9f 25 3e 81 7c 35 3d 7b 91 28 be
       -0.2781967 0.16174288 0.04430819 -0.16461746
000220 0c 8f 88 bd bb 6e 42 3e 6c 94 e6 3b 8a 80 0e be
       -0.06667909 0.18987553 0.0070367362 -0.13916221
000230 17 f9 2d bc 03 86 98 3d 5d bc cc 3d c6 72 5c bd
       -0.01061847 0.07447436 0.09996865 -0.053820394
000240 f3 b3 98 bc 12 3c 08 bc 44 96 e0 bc 9d db df 3d
       -0.018640494 -0.008315103 -0.027415402 0.1093056
000250 94 15 0b 3e e0 24 03 be 62 c0 4d bc 75 e1 37 3e
       0.1358245 -0.12807035 -0.012558075 0.17957099
000260 5a 75 a3 3d 47 2c 7d bd b0 1a ce 3b 77 d5 47 3d
       0.079813674 -0.061809804 0.0062898025 0.04878756
000270 61 8a f2 3b a4 5d d6 bd 57 ed b9 bd 18 45 40 3e
       0.00740175 -0.10467079 -0.09078472 0.18776357
000280 fd 7d 88 3d 4c 29 80 bd ba 1d 01 3e 69 6b c7 bb
       0.06664655 -0.06257877 0.12608996 -0.0060858023
000290 08 5b c3 3d b9 c6 b2 bc cb b1 2a 3e 35 b0 31 3b
       0.09538847 -0.021823274 0.16669385 0.0027113084
0002a0 f2 ae bd bd d4 1c a2 bd c4 87 a4 bd f6 ca 14 3e
       -0.09261884 -0.07915655 -0.08033708 0.14530548
0002b0 83 5b dc bb 2f b0 f9 3d a1 1a a3 bc cd 19 28 bd
       -0.0067247762 0.121918075 -0.019910159 -0.04104023
0002c0 a7 1c 67 bd 0a 3f 20 bc 4d 7a 38 bd 80 86 31 be
       -0.05642381 -0.009780655 -0.04503851 -0.17336464
0002d0 5a 6d 9c 3c 7b cc 55 3c 23 a5 e4 3c bc 4b 83 3d
       0.019095112 0.01304924 0.027910775 0.064109296
0002e0 4a 76 65 3e 85 4d 0c be 91 56 00 bc 03 2d 2c bd
       0.22408405 -0.13701446 -0.007833139 -0.042035114
0002f0 ba 92 fb bd 33 c2 1b be e5 7d 45 3d c0 05 3a bd
       -0.12283845 -0.152108 0.048215766 -0.04541564
000300 dc 89 df 3d d9 c4 14 be 06 57 0f be aa 7f 00 bb
       0.109149665 -0.14528216 -0.1399804 -0.0019607344
000310 42 32 fe 3d 16 03 e3 b8 51 b1 8f bd b6 dc 22 3d
       0.1241193 -0.00010824778 -0.07016242 0.039761268
000320 44 45 05 be dc ba cb 3d 24 96 e4 bd 44 55 3e bd
       -0.13014704 0.0994775 -0.111614496 -0.046468034
000330 b7 fa cb bd 21 ae c8 bd 7b 6e 2b bc c1 5e 41 3d
       -0.099599294 -0.097988375 -0.010463352 0.047209505
000340 6b 4b 0a bd ba db 4f 3e de 6f 48 bd 2d a0 1d 3e
       -0.03376333 0.20298663 -0.04893481 0.15393133
000350 6b 46 3c bc 0b 53 f7 bb 41 f7 7a 3e d8 ad 6f bd
       -0.011491398 -0.0075477413 0.24508382 -0.0585154
000360 2d 08 3f 3d 35 a7 56 be ee bb 2e 3d a4 04 d3 bd
       0.046638656 -0.20962222 0.042659692 -0.103036195
000370 0a 52 79 bd 55 e7 e8 bd d9 60 cd 3d c7 df 8e bc
       -0.060869254 -0.11372248 0.10028238 -0.01744069
000380 50 97 1e 3e 80 53 8c 3c c9 7d d1 bd 48 f1 fe 3c
       0.15487409 0.01712966 -0.1022907 0.031120911
000390 6a 21 ee bc b0 ee 91 3c b1 64 a9 3d 92 b8 4b 3d
       -0.029068667 0.01781401 0.082711585 0.049736567
0003a0 e1 fe 68 ba 95 5f 77 3d 4a 70 1c 3d 59 75 10 3e
       -0.00088880776 0.06039389 0.038193025 0.14107265
0003b0 32 b9 0c be d0 0b 40 be 4c a4 34 3c bc 7b ab 3d
       -0.13742521 -0.18754506 0.0110255 0.0837321
0003c0 a1 ee 1e 3d f3 e4 35 3d b6 75 65 3d a4 a2 d9 3d
       0.038801793 0.044407796 0.05602046 0.10626724
0003d0 2a cd 26 3e 8b 5d 0c be 0b d9 a2 3d 10 26 9d 3d
       0.16289201 -0.13707559 0.07951554 0.076732755
0003e0 56 9d 19 be 68 e1 a7 bd 11 f6 21 3e 1c cb c8 3d
       -0.15001425 -0.0819729 0.15816523 0.09804365
0003f0 50 57 09 3d 2d a3 26 be 0a 3d 07 3e 3e 82 a4 bd
       0.033530533 -0.16273184 0.13206878 -0.08032654

running_mean f4 [16]
000000 3a e0 a8 b9 eb 74 67 3b 35 6c 35 3a 5a 66 b8 bb
       -0.0003221052 0.0035317491 0.0006920726 -0.0056274356
000010 6a b3 a2 bb 70 26 76 3b cf 62 2b bb a4 a1 dd 39
       -0.0049652355 0.0037559532 -0.0026151424 0.00042272836
000020 fa ae a2 bb f5 71 00 bc 4d 5f a8 3b 66 4e b3 3b
       -0.0049647065 -0.0078396695 0.005138314 0.0054719923
000030 d8 df 51 3b d4 a2 f7 3a 1d 87 d0 bb a9 9f 89 3a
       0.003202429 0.0018893131 -0.006363763 0.0010499853

running_var f4 [16]
000000 a5 61 75 3e b2 8e c7 3e 66 ca a2 3e bd 99 8e 3e
       0.2396303 0.38976055 0.31795043 0.27851668
000010 d4 55 db 3e 0c c2 be 3e ed d1 a4 3e 5b 44 c2 3e
       0.4283892 0.3725742 0.3219141 0.37942776
000020 f9 f9 b1 3e 15 77 cf 3e 27 6f bf 3e 76 78 e8 3e
       0.34761027 0.4052054 0.3738949 0.45404404
000030 cf ee 8c 3e 79 5d 6e 3e 57 43 ef 3e cd c6 e0 3e
       0.27525946 0.23277844 0.46731064 0.43901673

weight f4 [16, 16]
000000 01 be 54 be c2 49 a5 3a 42 65 fd 3d d8 01 77 be
       -0.20775606 0.0012610483 0.12372829 -0.24121797
000010 85 27 d9 3d 0a 28 05 3e 28 c7 02 3e 64 5f ed 3d
       0.10603241 0.13003555 0.12771285 0.1159046
000020 b2 31 ae bd 1f 03 02 3e 7e 93 74 bd 53 68 79 bd
       -0.085055724 0.12696503 -0.059710972 -0.060890507
000030 22 09 61 be 7a 38 5c 3e 88 77 85 be f9 b3 73 be
       -0.2197614 0.21505919 -0.26067758 -0.23799123
000040 f8 28 63 be 3b 38 50 3b fc 46 6d 3c da c3 b2 3d
       -0.22183597 0.0031771797 0.014482256 0.08728762
000050 bf 6a b9 3d 72 71 8a be 54 72 43 be bb d6 02 3d
       0.09053563 -0.27039677 -0.19086581 0.031943064
000060 85 b6 bf 3d 3e d7 74 3e 64 f2 87 3d 89 c2 2c 3d
       0.09360985 0.23910233 0.06638029 0.04217771
000070 50 58 df bd a9 03 22 be 2c b8 3e bd 9e 10 e4 3c
       -0.10905516 -0.15821709 -0.04656236 0.027839955
000080 5a 0f ab bd 4e 23 84 bd a5 88 1b 3e c6 a1 05 bc
       -0.083525375 -0.06452046 0.15188845 -0.008156246
000090 f6 b3 2c 3e 4c 48 c8 3d d3 00 69 be 1f 0f 27 bc
       0.16865525 0.097794145 -0.2275422 -0.010196476
0000a0 c7 8f 2a be b2 72 e9 3d 54 f4 5d 3d bc 2e b5 bd
       -0.16656409 0.113988295 0.054188088 -0.088468045
0000b0 bd 27 0a be 50 bd 84 3d 50 34 98 bc ab 23 7f be
       -0.13491721 0.06481421 -0.018579632 -0.2491595
0000c0 00 7c 91 bd f2 5b 19 3b 97 ba e6 bd 2a 8c 8d be
       -0.07103729 0.002340075 -0.11266058 -0.27646
0000d0 db 72 45 be c9 7e e5 bd 98 7f 32 be cf 4c 6a 3e
       -0.19282095 -0.11205823 -0.17431486 0.22880863
0000e0 2d 63 a6 3d 57 65 36 be b9 a4 e4 bd 77 b7 06 3e
       0.08124385 -0.17812096 -0.11164231 0.13155924
0000f0 89 ad 15 3e f9 8b c5 3c e9 c5 6e be 29 9e e9 bc
       0.1461698 0.024114596 -0.23317684 -0.0285178
000100 a1 16 8b be 0d 13 9b bd 07 c0 34 3e 3a 8f 4e bd
       -0.27165702 -0.07571993 0.17651378 -0.05042956
000110 8b d9 69 3d 66 5b 18 3e 29 55 49 3c 48 3e 6c bd
       0.05709223 0.14878616 0.01228837 -0.057676584
000120 07 3c 9e bd e5 ed cb 3c 34 8b 16 3e 55 9d 27 be
       -0.07726293 0.02489371 0.1470154 -0.16368611
000130 2c cf af bd b8 28 5b 3e c6 9e 42 be 13 6c d6 ba
       -0.08584437 0.21402252 -0.1900588 -0.0016359113
000140 ca e4 39 3e b5 ee 4e be c1 40 10 3d dd f1 e5 bd
       0.18153682 -0.20208247 0.035218004 -0.112277724
000150 28 84 1e be 03 96 1e 3e 20 3b ff bd 71 78 1a be
       -0.15480101 0.15486912 -0.12462449 -0.15085007
000160 88 50 b0 be 46 7a 60 3d 77 8a 8d 3e 49 dc 6b 3d
       -0.3443644 0.05480411 0.27644703 0.057583127
000170 6a 54 5c 3d 48 89 d5 bd 87 b2 03 be 94 1e 4f bd
       0.05379144 -0.10426575 -0.12861072 -0.05056627
000180 5c 9a 3a 3e 2f f5 00 3e 02 2a 8c be 5c 48 99 3d
       0.18222946 0.1259353 -0.273758 0.074845046
000190 8b 21 d2 bd e5 5c 14 bd ac e8 4f bd ad 2d dc ba
       -0.10260304 -0.036221404 -0.050759003 -0.001679828
0001a0 66 40 0f be f2 fe 30 bd 6f a9 99 be a1 f4 38 3e
       -0.1398941 -0.043211885 -0.3001208 0.18062069
0001b0 fa 3d 94 3d 1e 0b a5 3d cd a9 3c 3d 9d cd b1 3d
       0.072383836 0.08058761 0.046060372 0.08681796
0001c0 0b ae 54 3d 85 fc e6 3d dc 97 57 3e 4e 83 43 3e
       0.051923793 0.11278633 0.21054024 0.19093058
0001d0 d1 f7 7b 3e ba c4 04 3e e9 87 78 bd 7f 39 3d be
       0.24606253 0.1296567 -0.06067649 -0.18478964
0001e0 66 a0 62 be 0b 96 31 be 9f af 88 3d 0e 69 5c be
       -0.221315 -0.17342393 0.06674122 -0.2152445
0001f0 ca 9f 9b 3d 2e 9e 84 bd 4f 0b 4f 3e da 90 db 3c
       0.07598837 -0.06475483 0.20219158 0.026802469
000200 ec 62 0a 3e b3 16 fc bc 4c 96 5c 3e 62 7f 75 be
       0.13514298 -0.030772543 0.21541709 -0.23974374
000210 58 61 02 3d 40 65 1c 3e 32 b9 2c be 38 12 9a bd
       0.031831115 0.15272999 -0.16867521 -0.07523006
000220 6d 07 4d be b0 c8 e8 bd 75 99 1b 3e 2c 54 67 be
       -0.20022364 -0.11366403 0.15195258 -0.22590703
000230 64 1e a8 3d 98 4d 0d 3e d7 5f 8f 3c 4d 1b 31 be
       0.082089216 0.13799131 0.017501755 -0.1729557
000240 e7 97 07 3d 30 d9 58 be 5a 95 ed 3d d4 bb dd bd
       0.03310385 -0.211766 0.11600752 -0.10826841
000250 29 64 04 3e ca 05 0f be 2a 6a 30 3d 88 d7 16 3c
       0.12928833 -0.13967052 0.043069996 0.00920666
000260 8c 3a a6 3c ae ec 51 3e 56 51 5b 3e 77 61 03 3d
       0.02029159 0.20500442 0.21417746 0.03207537
000270 94 b1 44 be 32 4f 4d be 78 bc 87 bd a5 24 40 be
       -0.19208366 -0.20049742 -0.066277444 -0.18763979
000280 e7 00 9c bd 7e 68 eb bc 17 b8 5c be b6 08 98 bd
       -0.076173596 -0.02873635 -0.215546 -0.074235365
000290 51 f7 83 be 90 77 7a be 80 75 9a bd cd b6 3e be
       -0.25774625 -0.24459672 -0.075419426 -0.1862442
0002a0 c3 4d 3c be 26 0e 61 3d 7f e0 14 3e bb 29 ef 3d
       -0.18389039 0.054945134 0.14538763 0.11677881
0002b0 6e 5b 14 be 99 10 2b 3e f0 af e3 bd 8c 91 7b 3c
       -0.14488003 0.1670555 -0.11117542 0.015354525
0002c0 71 d4 b1 3d 30 5b 0c bb 35 e7 0b be fe ed 1d 3e
       0.08683098 -0.0021416657 -0.13662417 0.15422818
0002d0 5f ee 86 3e f7 50 d8 3c 7f 70 a6 bd 73 ea 95 bd
       0.26353738 0.026405795 -0.08126926 -0.07320108
0002e0 48 67 0d 3c da de 30 3e ba 27 88 3d af fd cb bd
       0.008630581 0.17272511 0.06648202 -0.09960496
0002f0 1a 4a a4 be d1 0f e3 bd 71 ac 1a 3e b8 a5 c0 3d
       -0.32087785 -0.11087001 0.15104844 0.09406608
000300 2e cf 60 3c e2 b4 18 be 0b 51 be 3d ef 7e d1 ba
       0.0137212705 -0.14912751 0.092928015 -0.0015983264
000310 4a 2d 51 be fd bf f7 3d 25 65 bf 3c 20 2f 2e 3e
       -0.20427433 0.12097166 0.02336366 0.17010164
000320 91 02 1f 3d b7 26 ff 3b 92 55 81 be c9 3d d5 bd
       0.038820807 0.0077865976 -0.25260597 -0.10412175
000330 15 75 7a bd e4 3a 16 be a0 ad 44 3d 19 49 8d bd
       -0.061146814 -0.14670902 0.048017144 -0.06898708
000340 00 42 08 3e ef eb b6 3d 75 f4 0f be 3b cf 05 be
       0.13306427 0.089317195 -0.14058097 -0.13067333
000350 39 72 5b be cc 7c 14 3e ce c3 ed 3d 38 ee 21 bb
       -0.21430291 0.14500731 0.116096124 -0.002470864
000360 fa ea 54 be 87 50 af bd e6 a0 87 be d6 e6 8a 3e
       -0.20792761 -0.08560281 -0.26489943 0.2712924
000370 72 dc d7 3c c7 7f 36 be 96 67 17 3d 1e 3e 59 bc
       0.026350234 -0.1782218 0.03696402 -0.013259439
000380 db 89 2a be 52 0c 78 bd 9f 18 c1 bd 9d d8 32 bd
       -0.1665415 -0.060558625 -0.09428524 -0.04366361
000390 fc 0a 2d bd 6f 4c a6 be 32 de ec bd 49 2e ad be
       -0.042246804 -0.3248019 -0.11565818 -0.33824375
0003a0 fc 57 f2 bd 2b e9 ef 3d 7a 6e 59 3d 4c 53 da 3d
       -0.11833188 0.11714395 0.053083874 0.10660419
0003b0 ca 40 5f be 5f a2 85 3c f2 8b c2 3c 2d 48 b9 3b
       -0.21802059 0.016312776 0.023748372 0.005654356
0003c0 83 3c 97 bd 5e b8 b4 be a0 df bb 3a 9a ea a8 3d
       -0.073845886 -0.3529691 0.0014333613 0.08247872
0003d0 aa 0d 6e be 67 e5 00 3e 1f 3b 7a 3d 89 66 37 bc
       -0.232474 0.1258751 0.06109154 -0.01119388
0003e0 52 27 32 3e a9 55 2e be d1 09 59 bc de 02 1e bd
       0.17397812 -0.17024864 -0.013246969 -0.038576953
0003f0 31 dd 09 be e5 1c f4 3d a3 75 ee 3c 01 ec bc bd
       -0.13463284 0.11919574 0.029108828 -0.09224702

running_mean f4 [16]
000000 ed 1a 2b be d5 46 f9 bd 76 17 1c be 4e dc 97 be
       -0.1670949 -0.12171713 -0.15243325 -0.29660267
000010 46 a6 95 bd b3 77 4d be f7 13 dd bc 3b 5d 0f 3e
       -0.07307105 -0.20065193 -0.026987059 0.14000408
000020 62 49 d0 bd 07 7a 01 be 5f d4 c7 be 22 3e 51 3d
       -0.10170247 -0.12644206 -0.39029214 0.051084645
000030 18 e1 28 be 3b ab 16 be f3 0a e0 be 5d 5d 2e be
       -0.16492116 -0.14713757 -0.43758354 -0.17027803

running_var f4 [16]
000000 5f 21 2b 3e 52 3c 2a 3e f2 12 57 3e 4a 92 7e 3e
       0.16711949 0.16624573 0.21003321 0.24860492
000010 3e 92 17 3e 82 82 4b 3e f8 fe 3e 3e 4f 92 ff 3d
       0.1480188 0.19874004 0.1865195 0.12479078
000020 b4 90 2c 3e 23 f1 36 3e 5a c1 4d 3e 0f 4a 4e 3e
       0.16852075 0.17865424 0.20093289 0.20145439
000030 66 fd b9 3d 43 7c 51 3e 45 cd 75 3e 4f ca 1e 3e
       0.09081535 0.20457558 0.24004085 0.15506862

weight f4 [8, 16]
000000 64 cb 64 3d 49 9f 58 3d b3 36 d2 bd fa a8 20 3d
       0.05585803 0.05288628 -0.10264339 0.03922365
000010 37 8d c9 3c 18 a5 a0 3d d0 eb 8d 3c 32 6b 46 3d
       0.02460347 0.07843989 0.017324358 0.048442073
000020 10 03 82 bd b1 05 58 bc 81 93 12 be ba 4d 2f bd
       -0.063482404 -0.013184951 -0.14314081 -0.042798735
000030 bf c1 1d bd 20 44 15 bd 1f e6 e8 3d 08 44 d8 3c
       -0.03851485 -0.036441922 0.11372017 0.026399627
000040 56 d6 90 3d fb 21 1d bc 38 25 e8 bc 0c ee 0e be
       0.07072131 -0.009590621 -0.02833806 -0.13957995
000050 61 64 93 3c 5c 56 bb 3d de 7c 0d be 09 02 b8 bd
       0.0179922 0.09147331 -0.13817164 -0.08984763
000060 17 dc a0 bd 63 b7 e9 3d b6 3f 09 be ff 7c 7e 3d
       -0.07854479 0.11411931 -0.1340321 0.062130924
000070 34 fd b3 bc 29 d1 11 3e de cd cb bd 54 4b 7d bd
       -0.021971323 0.14239945 -0.099513754 -0.061839417
000080 63 0f 33 bc 9c 23 ea 3d ba 32 19 3d 64 06 10 3d
       -0.010928961 0.11432573 0.037401892 0.035162345
000090 51 0e 51 3d a1 8e be 3d a2 55 d9 3d e4 8a 99 3d
       0.051039044 0.09304548 0.10612036 0.074971944
0000a0 c9 9a c7 bc f3 4c ae bd 79 20 05 bd 98 f4 d1 bd
       -0.0243658 -0.08510771 -0.03250167 -0.10251731
0000b0 39 ca 65 3d 7a 48 94 bd 5c 24 88 3c 8f e2 0d 3d
       0.056101058 -0.07240386 0.0166189 0.03463989
0000c0 12 a8 f4 3c 58 7a c5 3c 51 21 40 be 3d 04 9b 3c
       0.029865298 0.02410619 -0.18762709 0.01892292
0000d0 b1 78 be 3d 5b 16 b5 bb f0 a4 d1 3d ed f2 f4 3d
       0.09300364 -0.0055263466 0.102365375 0.11960397
0000e0 8e 38 09 3d 83 ed 99 3d 92 1a 69 3d b5 3c 09 bd
       0.0335012 0.07516005 0.056910105 -0.03350516
0000f0 39 26 38 3e 61 f2 2a bd bc ba 00 3d ae d2 02 be
       0.17983331 -0.041735057 0.031428084 -0.1277568
000100 b6 10 38 3e 1c 78 ac bd 9a 7c c9 bd a3 52 b7 3d
       0.17975125 -0.084213465 -0.09838219 0.089513086
000110 43 08 3b be f8 75 79 3d ac c4 57 3b 12 7f 37 3d
       -0.1826487 0.06090352 0.0032923622 0.044798918
000120 18 53 e1 3d 3a 5e 7e 3d 38 77 28 3d 5f 16 ba 3d
       0.11002177 0.06210158 0.04112932 0.09086298
000130 24 ba 14 3e b9 8c c0 3d 13 d7 32 3e 6b 72 42 3d
       0.14524132 0.09401841 0.17464857 0.0474724
000140 fd 45 99 bd fb 68 6a bd db fd 02 be 17 78 a1 bd
       -0.07484052 -0.057229023 -0.1279215 -0.078842334
000150 f9 db fe 3d 35 3f dd bd 69 40 c8 bd 34 d1 a4 3a
       0.124443 -0.108030714 -0.0977791 0.0012574554
000160 75 65 b9 3d 0f 08 26 bd 54 91 86 3d af f9 93 3d
       0.090525545 -0.04053503 0.06570688 0.07225358
000170 01 15 9b 3d d9 3b e8 3d 62 88 4f 3d a0 f9 06 be
       0.075723656 0.1133954 0.050667174 -0.13181162
000180 8b 6b 9c bd ac 7c c8 bd b8 93 e5 bd 2b b0 59 bd
       -0.076377 -0.09789404 -0.11209816 -0.053146522
000190 1f 1a 4e 3e 37 f3 95 bd 3c 41 15 be c2 42 b4 bc
       0.20127152 -0.0732178 -0.14575666 -0.022004489
0001a0 f1 dd ab bd f8 e1 2f 3d 9e b6 a2 bd 3d ed 8f 3d
       -0.08391941 0.04294011 -0.07944988 0.070276715
0001b0 27 3e 0b bc 77 ec c8 3d 90 51 83 3d 4b 60 14 be
       -0.008498705 0.09810727 0.06412041 -0.14489858
0001c0 80 1a 44 3d 48 5b 1e be 16 de c3 39 98 7d 0d 3e
       0.047876835 -0.15464509 0.00037358765 0.13817441
0001d0 06 17 c0 3b a6 96 db bc 4f 03 4a 3d 52 13 22 3b
       0.0058621196 -0.026805233 0.04931956 0.0024730754
0001e0 16 2d 17 3e 91 fc e8 3d f3 d6 a0 3d 73 9d 33 3e
       0.14763293 0.11376298 0.07853498 0.17540531
0001f0 1a 26 3f 3e 6f f1 03 3e 7f e4 3b 3e e3 2e 9c 3d
       0.18666878 0.12885068 0.18348883 0.076261304
