Experiments/ssd_0.05temp_20241130_1548.pth (torch, 8179 bytes, 8 tensors)

weight f4 [16, 30]
0	0xbeb0746a	-0.34463817
1	0xbce414ea	-0.027842004
2	0xbcf62fd6	-0.030052107
3	0x3d8689cf	0.06569254
4	0x3df59357	0.119909935
5	0xbd1ecdb1	-0.03877038
6	0x3dc24266	0.09485321
7	0xbd96cd5e	-0.073633894
8	0xbc9802cb	-0.01855602
9	0x3db65d46	0.08904509
10	0xbd4299be	-0.0475099
11	0xbd729389	-0.05922273
12	0xbe01cc9d	-0.1267571
13	0xbd00f0dc	-0.0314797
14	0x3b99c95e	0.0046931943
15	0x3e08adb5	0.13347514
16	0x3dedb621	0.11607004
17	0xbd21b253	-0.039476704
18	0x3dc2e7d5	0.09516875
19	0xbe67ca45	-0.22635753
20	0xbce12b69	-0.02748652
21	0x3dc7ceca	0.09756239
22	0x3e3ef119	0.18646659
23	0xbd6fe237	-0.058565345
24	0xbdd3fc4d	-0.10350857
25	0x3e18b81a	0.14913979
26	0xbd4047be	-0.04694342
27	0xbd4c5ce3	-0.04989327
28	0xbc8b6106	-0.017014038
29	0xba0ed73e	-0.00054489437
30	0xbe382efb	-0.17986672
31	0x3d00b2be	0.03142046
32	0x3d0353a9	0.032062206
33	0x3d486ed5	0.048933823
34	0xbdfbfeb3	-0.123044394
35	0x3d631d37	0.055447783
36	0x3dbf7404	0.093483
37	0x3cff1cc0	0.031141639
38	0xbd3baf19	-0.045821283
39	0xbd575674	-0.052572682
40	0x3daf4e3e	0.085598454
41	0x3dafb84d	0.085800745
42	0x3e2673c9	0.16255106
43	0x3e97c619	0.29643324
44	0xbd97a12b	-0.07403787
45	0xbd1891e5	-0.03724851
46	0xbd4f34fa	-0.05058763
47	0xbe0fce74	-0.140436
48	0xbc861a9e	-0.016370114
49	0xbd0be245	-0.034151334
50	0xbced46b6	-0.028964382
51	0xbd1bd1a8	-0.03804174
52	0x3d1d197d	0.038354386
53	0x3ca61406	0.02027322
54	0xbe00b454	-0.1256879
55	0xbe0a061e	-0.13478896
56	0xbc403252	-0.011730747
57	0x3c028e25	0.00796846
58	0x398ea705	0.0002720879
59	0xbd719e68	-0.05898896
60	0x3ec9972c	0.39373147
61	0xbd9b2b69	-0.07576639
62	0xbcd7ca5d	-0.026341612
63	0x3c169205	0.009190087
64	0x3d160e00	0.036634445
65	0xbccd1aa8	-0.025037125
66	0xbd121914	-0.035668448
67	0x3ca6459f	0.02029687
68	0xbd0556f7	-0.03255364
69	0x3d4810c2	0.048844106
70	0xbd8720d7	-0.065980606
71	0xbd832e06	-0.06405263
72	0xbc8bb6b5	-0.017054895
73	0xbc380709	-0.011232146
74	0x3c7beb0d	0.015375865
75	0xbe26b964	-0.16281658
76	0xbd8dfd30	-0.06933057
77	0x3d812e55	0.06307665
78	0x3cf28d33	0.029608345
79	0x3d772d30	0.06034583
80	0xbc0dcc97	-0.008654735
81	0x3d2914cb	0.041279595
82	0x3d9ec49e	0.077523455
83	0xbcbabc73	-0.022794938
84	0xbdd7f991	-0.10545648
85	0x3c690fee	0.014224989
86	0x3cf7dca3	0.030256575
87	0xbd34bc86	-0.044125102
88	0xbc70770c	-0.0146768205
89	0x3cb98950	0.022648484
90	0x3df92175	0.121645845
91	0xbd5217b5	-0.05129214
92	0x3b19ec42	0.0023486768
93	0x3ea5af99	0.32360533
94	0xbe0d9674	-0.13826925
95	0xbe190fae	-0.14947388
96	0x3e0c9cd7	0.13731705
97	0xbe1f1ebf	-0.15539072
98	0x3d8ac414	0.0677568
99	0x3c46ee38	0.012141757
100	0x3d6e1800	0.058128357
101	0x3dda64e6	0.10663776
102	0x3d7d47c6	0.061836027
103	0xbc33b405	-0.010968213
104	0xbc1513b6	-0.009098938
105	0x3e45fe19	0.19335212
106	0x3cddd9cd	0.027081395
107	0x3b9a744a	0.00471357
108	0xbde14cd2	-0.110009804
109	0x3d4e0b4f	0.050303753
110	0x3d029f40	0.031890154
111	0xbce472d8	-0.027886793
112	0x3ae3628e	0.0017348097
113	0x3cdda45d	0.027055914
114	0x3c6568b8	0.014002018
115	0xbe1110cd	-0.14166565
116	0x3e3b73b7	0.1830586
117	0x3cf21961	0.029553117
118	0x3cc09755	0.02350966
119	0xbda2d8f3	-0.07951536
120	0x3cbc50f9	0.02298783
121	0x3d98d7c3	0.07463028
122	0x3d2efeaf	0.042723354
123	0xbc5b7978	-0.01339566
124	0x3cbba172	0.022904132
125	0x3cae03ee	0.021242108
126	0x3d867fb1	0.06567324
127	0x3b84e897	0.004056047
128	0xbcf01223	-0.029305523
129	0xbddf9e11	-0.10918821
130	0x3e36a65f	0.17836903
131	0x3e609ff3	0.21936016
132	0xbc9b71ee	-0.018975224
133	0x3cc8b97d	0.02450251
134	0x3e3c2a50	0.18375516
135	0x3d8ef1f0	0.0697974
136	0xbe38c85d	-0.18045183
137	0x3a285be7	0.0006422386
138	0xbdd46e4d	-0.10372601
139	0xbceeae97	-0.029135985
140	0xbda1a745	-0.07893232
141	0x3d517f77	0.05114695
142	0x3de3c50f	0.1112157
143	0x3ce0956b	0.027414998
144	0x3d989283	0.0744982
145	0xbdb9c862	-0.09071423
146	0x3db6f950	0.08934271
147	0xbc8d18ee	-0.017223801
148	0xbc443784	-0.011976127
149	0xbda9127d	-0.082554795
150	0xbe28da4b	-0.16489522
151	0xbd5d3d3e	-0.054013483
152	0xbbeaae2e	-0.007161877
153	0xbe0636b4	-0.13106805
154	0x3e4d42e3	0.20045047
155	0x3daebcd4	0.0853211
156	0x3d8bffa5	0.0683587
157	0x3d648ac4	0.0557964
158	0x3d9bb93a	0.076036885
159	0x3d93d3a7	0.07218104
160	0xbe415d21	-0.18883182
161	0xbdd069b9	-0.10176415
162	0x3d920ffc	0.07131955
163	0x3d9f6689	0.07783229
164	0x3e00d82a	0.1258246
165	0x3e1227ee	0.14273044
166	0xbe93b86a	-0.28851634
167	0x3d3e86b8	0.046515197
168	0x3e52917f	0.20563315
169	0xbd796f23	-0.060897004
170	0x3cd9c89b	0.026584914
171	0x3db5219b	0.088443
172	0x3e4f9382	0.20271114
173	0xbd0ec1f8	-0.03485295
174	0xbcd38c6b	-0.025823792
175	0x3dcf2424	0.10114315
176	0xbe45205c	-0.19250625
177	0xbc5c32c1	-0.013439835
178	0x3bf39e76	0.0074346615
179	0x3d50a01c	0.050933942
180	0x3e1ddab2	0.15415457
181	0xbdb351bf	-0.08755826
182	0x3d0acd93	0.033887457
183	0x3e5fe3ca	0.21864238
184	0xbde167dd	-0.110061385
185	0xbd0b663d	-0.03403305
186	0x3cb0d6b0	0.021586746
187	0x3d8ef190	0.06979668
188	0x3d25783d	0.04039787
189	0xbeab8ffa	-0.33508283
190	0xbe69dd2f	-0.22838281
191	0xbd43df33	-0.04782028
192	0xbdf023b4	-0.1172556
193	0x3d29671c	0.0413581
194	0x3e0625ef	0.13100408
195	0xbdcf17c3	-0.10111954
196	0xbc0fce8c	-0.008777272
197	0x3d503050	0.050827324
198	0x3e060134	0.13086396
199	0x3cfdc967	0.030979825
200	0x3b99326d	0.0046752007
201	0xbc8b38dd	-0.016994888
202	0xbc82cb9a	-0.015966225
203	0xbdb21d71	-0.08697022
204	0xbd79a084	-0.060944095
205	0x3c27fa78	0.0102525875
206	0x3da607aa	0.081069306
207	0xbc317fae	-0.010833664
208	0x3ca733a1	0.02041036
209	0x3cfafee4	0.03063912
210	0x3cb935fe	0.022608753
211	0x3d3cff8f	0.046142157
212	0x3d82f124	0.0639365
213	0xbde478b7	-0.11155837
214	0xbd35eedb	-0.044417243
215	0xbd7ca36a	-0.06167928
216	0xbdb638b8	-0.08897537
217	0xbd008a48	-0.031381875
218	0xbb1976d3	-0.0023416772
219	0x3e250edf	0.16118954
220	0xbcf9cdc0	-0.030493617
221	0xbe71819f	-0.23584603
222	0xbdca71dc	-0.09884998
223	0xbe4b455c	-0.19850677
224	0xbc3cb016	-0.0115165915
225	0xbdd67610	-0.104717374
226	0xbd3cee88	-0.04612592
227	0x3d20df7f	0.039275642
228	0x3e03e8b7	0.12881742
229	0x3df305d7	0.11866348
230	0xbd268a2b	-0.04065911
231	0xbc9af3e9	-0.018915134
232	0xbd5e91ba	-0.054338194
233	0x3b9e6de2	0.0048348764
234	0xbe78af30	-0.24285579
235	0xbde7a231	-0.113102324
236	0x3e012578	0.1261195
237	0x3ca588bb	0.0202068
238	0x3c452d50	0.012034729
239	0xbcf0501c	-0.029335074
240	0xbe4383df	-0.19093274
241	0x3c5e3867	0.013563252
242	0xbb514d57	-0.0031936967
243	0xbcb90bb0	-0.02258858
244	0x3d8260ea	0.06366141
245	0x3e072d1a	0.13200799
246	0xbcf614e7	-0.030039264
247	0x3e188943	0.14896111
248	0xbda80a60	-0.08205104
249	0xbe6ad444	-0.22932535
250	0xbc7ca574	-0.0154203065
251	0xbd2aae27	-0.04166999
252	0xbe63e432	-0.22255018
253	0xbe207415	-0.15669282
254	0x3d853f44	0.065062076
255	0x3e080a0a	0.1328508

bias f4 [16]
0	0xb6d556be	-6.357993e-06
1	0xb8b73b1f	-8.737132e-05
2	0xb868f966	-5.554538e-05
3	0x379aa958	1.8437087e-05
4	0xb5069668	-5.013776e-07
5	0xb8dd0bac	-0.00010540275
6	0xb93b3da7	-0.00017856677
7	0x389eadc3	7.566393e-05
8	0x3714ef68	8.8772285e-06
9	0x38e0958e	0.00010709009
10	0x38b869f1	8.793537e-05
11	0x363a2000	2.7734786e-06
12	0x38d89807	0.00010328
13	0x39290907	0.00016120459
14	0x391178e6	0.00013873316
15	0xb85d111d	-5.2706444e-05

weight f4 [16]
0	0x3f645cf1	0.8920432
1	0x3f663698	0.89927053
2	0x3f890ed7	1.0707654
3	0x3f57438b	0.8408744
4	0x3f5fd977	0.874412
5	0x3f68a7c4	0.9088099
6	0x3f6f702d	0.9353054
7	0x3f6166b7	0.88047355
8	0x3f74a7b4	0.95568395
9	0x3f6abcee	0.91694534
10	0x3f7d32f5	0.9890588
11	0x3f537046	0.8259319
12	0x3f66f1f1	0.90212923
13	0x3f748ee2	0.9553052
14	0x3f612f53	0.87962836
15	0x3f8573df	1.0425986

bias f4 [16]
0	0x3ee914b1	0.455236
1	0x3ee4401e	0.44580168
2	0x3e0c3611	0.136925
3	0x3e8c81ee	0.27442878
4	0x3e5903c0	0.21192837
5	0x3e679e25	0.22618921
6	0x3eb117f6	0.34588593
7	0x3eaf81fe	0.34278864
8	0x3e89853c	0.26859462
9	0x3eadd13d	0.339487
10	0x3e4ec989	0.20194067
11	0x3ed43249	0.41444615
12	0x3e544eba	0.20733157
13	0x3eb5dfa4	0.35522187
14	0x3de4f9dc	0.111804694
15	0x3e4bdafe	0.19907758

running_mean f4 [16]
0	0x3c9b7c26	0.018980097
1	0x3c05031e	0.008118419
2	0xbc20c3ac	-0.009812277
3	0x3b6da7ff	0.0036263464
4	0xba72b53e	-0.00092585746
5	0x3c41ef29	0.011836805
6	0xbc298349	-0.010346242
7	0xbbcd53b4	-0.0062660817
8	0xbb1a0e84	-0.0023507187
9	0x3ad630b6	0.0016341421
10	0xbc403cd9	-0.011733257
11	0x3acdb775	0.0015694933
12	0x3bf2117f	0.0073873396
13	0x3b42c7bc	0.0029721102
14	0xbaacdf82	-0.0013189169
15	0x3b538cb1	0.0032279904

running_var f4 [16]
0	0x3ec9bc04	0.39401257
1	0x3e8c1ad9	0.27364233
2	0x3e842ce9	0.25815514
3	0x3ee04705	0.43804184
4	0x3e818477	0.25296375
5	0x3ed5bc08	0.4174502
6	0x3ed0c906	0.4077837
7	0x3e951dbf	0.29124257
8	0x3e975a0c	0.29560888
9	0x3ea6df9a	0.3259247
10	0x3eb5f4d9	0.35538366
11	0x3f090a10	0.5353098
12	0x3e9dd202	0.30824286
13	0x3e3b6940	0.18301868
14	0x3ebc6f90	0.36803865
15	0x3ed25db8	0.41087127

weight f4 [8, 16]
0	0x3d571b17	0.05251607
1	0x3de9b40f	0.114112966
2	0xbdac935f	-0.08426546
3	0xbe56bf16	-0.20971331
4	0x3e0c66cb	0.13711087
5	0xbdf950c3	-0.12173607
6	0x3df48844	0.11940053
7	0x3e32caf7	0.17460237
8	0x3e1fd130	0.15607142
9	0x3c62319d	0.013805774
10	0xbe1ced63	-0.15324931
11	0x3da954b9	0.08268113
12	0x3e593148	0.21210206
13	0xbe2207fa	-0.15823355
14	0x3da743e5	0.08167247
15	0x3cd8415f	0.026398359
16	0xbe5fedbc	-0.21868032
17	0x3e109175	0.14117987
18	0xbcce603e	-0.025192376
19	0xbbebb24c	-0.0071928855
20	0xbdbf1708	-0.09330565
21	0x3e12de87	0.143427
22	0xbd1e70ad	-0.038681675
23	0x3cdc8b6c	0.02692195
24	0x3d86e6a1	0.06586958
25	0xbc88282b	-0.016620716
26	0xbe340f30	-0.17583919
27	0xbe31ae6e	-0.17351696
28	0xbd473835	-0.048637588
29	0xbd1c7df6	-0.038206063
30	0xbb73ce14	-0.003720169
31	0xbd237a5e	-0.03991162
32	0x3d87da0e	0.066333875
33	0xbe521ff1	-0.20519997
34	0x3bb08fd1	0.005388238
35	0x3e462508	0.19350064
36	0x3e7c3cb8	0.24632537
37	0x3de4f7ac	0.11180052
38	0x3c5626f0	0.013070807
39	0x3e7e40ae	0.24829361
40	0xbddf40dc	-0.10901043
41	0xbda587d8	-0.08082551
42	0xbe496013	-0.19665556
43	0x3af4eb29	0.0018685806
44	0xbe340260	-0.17579031
45	0xbd983747	-0.07432418
46	0xbd967b82	-0.07347776
47	0x3dc20a62	0.094746366
48	0x3ceacc87	0.02866198
49	0x3e7faeb8	0.24968994
50	0x3ca4fa67	0.020138932
51	0xbdf8a6ea	-0.12141211
52	0xbd9f3ed9	-0.07775659
53	0x3d9f4c29	0.07778198
54	0x3e21932a	0.15778795
55	0x3e310e3c	0.17290586
56	0xbd15c437	-0.03656408
57	0x3e116696	0.1419929
58	0x3d9b84e1	0.07593704
59	0xbe5035a2	-0.2033296
60	0xbdee90ed	-0.11648736
61	0x3e350121	0.17676212
62	0xbdacc006	-0.08435063
63	0xbd3bad7f	-0.045819756
64	0x3e441580	0.19148827
65	0x3e06e89a	0.13174668
66	0x3e5f77dd	0.21823068
67	0x3dfa35fc	0.12217328
68	0xbe429673	-0.19002704
69	0xbc5c09a7	-0.013430036
70	0xbe60918f	-0.21930526
71	0x3c7dfdd1	0.015502409
72	0x3e1fdcf7	0.15611635
73	0xbb27f59c	-0.0025628572
74	0xbbbae37c	-0.005703388
75	0x3dc8254b	0.09772738
76	0xbca8ccf2	-0.020605538
77	0xbe71e197	-0.23621212
78	0xbe65605a	-0.22400036
79	0x3ca46df7	0.020071967
80	0xbe000960	-0.12503576
81	0xbdc41287	-0.09573846
82	0xbe8843d8	-0.2661426
83	0xbd700da7	-0.05860677
84	0xbe1f2356	-0.15540823
85	0x3e4a29b8	0.19742477
86	0x3df3798b	0.11888417
87	0xbd955e94	-0.0729343
88	0xbd170534	-0.036870196
89	0x3e27dc0e	0.16392538
90	0x3d0dbc8a	0.034603633
91	0x3e1a5110	0.15069985
92	0xbdab2042	-0.08355762
93	0xbd5cc084	-0.053894535
94	0xbd658fb9	-0.056045268
95	0xbdb601df	-0.08887076
96	0x3e0eab6a	0.13932577
97	0x3cf95282	0.03043485
98	0xbd9620e7	-0.073304944
99	0x3e30f098	0.17279279
100	0x3c57e155	0.013176282
101	0x3dd090e6	0.10183887
102	0x3d4f5443	0.050617468
103	0xbd81b9a3	-0.063342355
104	0x3e018ef0	0.12652183
105	0xbe32b3f5	-0.1745146
106	0x3d3d3f74	0.04620309
107	0x3dee2aeb	0.1162928
108	0xbdb102cb	-0.08643111
109	0xbd49cdad	-0.049268413
110	0x3e392d1f	0.18083619
111	0xbe9681f7	-0.2939603
112	0xbdfd8e78	-0.123806894
113	0xbca716eb	-0.02039667
114	0xbe66aa45	-0.2252589
115	0x3e7900f3	0.24316768
116	0xbe1ca053	-0.15295534
117	0xbd6bb9f7	-0.057550397
118	0xbe572f5b	-0.21014158
119	0x3e06c348	0.13160431
120	0x3e57411d	0.21020932
121	0x3e0f5f1b	0.14001124
122	0x3dc36173	0.09540071
123	0xbdff47e9	-0.12464888
124	0xbe025818	-0.12728918
125	0x3bb18231	0.0054171314
126	0x3e21fc28	0.15818846
127	0x3e0c8c92	0.13725498

bias f4 [8]
0	0xbe707548	-0.23482239
1	0x3e8b3cf2	0.27194935
2	0xbc5cdefa	-0.013480896
3	0xbe86f375	-0.26357618
4	0xbd9b3931	-0.07579268
5	0x3e601bed	0.21885653
6	0xbdd39867	-0.10331803
7	0xbb5deb18	-0.003386205
