Experiments/SSD_0.05temp_20241129_2111.pth (torch, 10370 bytes, 12 tensors)

weight f4 [16, 30]
0	0x3d291ee2	0.041289218
1	0xbdc14518	-0.09437007
2	0x3d10f347	0.035388257
3	0xbd8b95c1	-0.06815673
4	0xbbdd2bd6	-0.0067496104
5	0xbce7d2ff	-0.028298853
6	0x3d0f1fe7	0.034942534
7	0xbd961acc	-0.0732933
8	0xbd317f75	-0.043334443
9	0x3d9c0969	0.07618982
10	0x3daaf860	0.08348155
11	0x3e363d2a	0.1779677
12	0xbdb85215	-0.09000031
13	0x3d5cdc0a	0.053920783
14	0x3d1635fa	0.03667257
15	0xbd9c17b8	-0.076217115
16	0x3cbb0868	0.022831157
17	0x3e3e5dea	0.18590513
18	0x3e571e8d	0.21007748
19	0xbc55565d	-0.013021079
20	0xbd4db4d2	-0.05022127
21	0x3c0470f9	0.008083575
22	0x3d7c49f0	0.06159395
23	0xbcab57be	-0.020915862
24	0x3d0a1fa4	0.03372158
25	0xbcb51f24	-0.022109576
26	0x3e4c9293	0.19977789
27	0xbd4d3b62	-0.05010546
28	0xbbc96535	-0.006146098
29	0x3c01d648	0.007924624
30	0x3d764b65	0.060130496
31	0xbc84ce16	-0.01621155
32	0x3d6c5bd9	0.05770478
33	0xbd864314	-0.06555763
34	0x3bf66ef3	0.0075205504
35	0x3d62ae54	0.055342034
36	0xbb9523ff	-0.00455141
37	0xbd26501a	-0.040603735
38	0x3dd8e040	0.10589647
39	0xbdffe7ef	-0.1249541
40	0x3e639e58	0.22228372
41	0x3b9bbd95	0.0047528245
42	0xbd88127d	-0.06644151
43	0x3d656552	0.05600483
44	0x3bff570a	0.0077923583
45	0x3e09f739	0.13473214
46	0x3e94d830	0.29071188
47	0xbe2f38c3	-0.17111497
48	0x3d943afa	0.072378114
49	0xbe713e24	-0.23558861
50	0xbd490630	-0.049078166
51	0x3be55c76	0.0069995476
52	0x3ca1d00d	0.019752527
53	0x3dfd0039	0.12353558
54	0x3e0b7dd7	0.13622223
55	0xbe8897b7	-0.2667825
56	0x3dac3b96	0.084098026
57	0xbc3bb462	-0.011456581
58	0xbc23f4e3	-0.010007116
59	0xbd96430d	-0.07337008
60	0xbdb4755f	-0.08811449
61	0x3c777bbb	0.015105183
62	0x3d80cad7	0.06288689
63	0xbd7f3356	-0.062304817
64	0xbe87efd6	-0.26550168
65	0x3d195375	0.037433106
66	0x3d021763	0.031760585
67	0x3d07a1c0	0.03311324
68	0x3dbd239c	0.092353076
69	0x3dde5b9b	0.10857316
70	0xbd759a43	-0.05996157
71	0x3d352be3	0.044231307
72	0xba1bac50	-0.00059384573
73	0x3c8f4d38	0.017492875
74	0x3db1f0fc	0.08688542
75	0x3ce7ed45	0.028311381
76	0xbdeb99d5	-0.115039505
77	0x3e04f3c7	0.12983619
78	0xbd8bdc6d	-0.06829152
79	0x3dff6107	0.12469678
80	0xbd1df8ad	-0.038567234
81	0xbd8be0be	-0.068299755
82	0xbe301b3c	-0.17197889
83	0xbcc19fde	-0.0236358
84	0x3e00ede5	0.1259075
85	0x3e33fa29	0.17575897
86	0xbc6612a0	-0.0140425265
87	0xbd715b63	-0.058925044
88	0xbd423465	-0.04741325
89	0xbdefd854	-0.11711183
90	0xbcfba8a6	-0.030720066
91	0x3d2c450f	0.042058047
92	0xbd754893	-0.059883665
93	0x3da04b51	0.078268655
94	0xbe55db9f	-0.2088456
95	0xbd988559	-0.07447309
96	0xbb5b2d5e	-0.003344379
97	0xbdc07188	-0.09396654
98	0xbe0a35be	-0.13497064
99	0xbdef64da	-0.11689158
100	0x3eaa8f7d	0.33312598
101	0xbe5a8edf	-0.21343563
102	0xbe305e83	-0.17223553
103	0x3dc34664	0.0953491
104	0x3d5bb748	0.053641587
105	0xbc54ada5	-0.012980853
106	0xbd931e69	-0.07183535
107	0xbcd5d85b	-0.026104143
108	0xbe2eeb11	-0.17081858
109	0x3d5c0d5d	0.05372368
110	0x3d3beb1c	0.045878515
111	0xbcc1dae9	-0.023663955
112	0xbc511a10	-0.012762561
113	0x3ccdaae3	0.0251059
114	0x3e0fde40	0.14049625
115	0x3dc9ce36	0.09853785
116	0xbe2fd279	-0.17170133
117	0x3d278b9e	0.040904634
118	0x3c60f02a	0.013729135
119	0x3d8c3bc5	0.06847338
120	0xbd874124	-0.066042215
121	0x3e66f1d4	0.22553188
122	0xbd4373b3	-0.04771776
123	0xbca1b13a	-0.019737829
124	0x3dcca17f	0.099917404
125	0x3cd0e14c	0.025498055
126	0xbd38b915	-0.045098383
127	0x3dc3f1ba	0.0956759
128	0x3dd2343b	0.102638684
129	0x3c35066e	0.011048896
130	0xbe08f67e	-0.1337528
131	0xbd38e0ff	-0.045136448
132	0x3e80f846	0.25189418
133	0xbe0335e6	-0.1281353
134	0xbc23f8ae	-0.01000802
135	0x3dc2b6a6	0.09507494
136	0xbdfcbf1a	-0.12341137
137	0xbdbdad1a	-0.09261532
138	0x3e2bbfbe	0.16772363
139	0xbd6e5dab	-0.058194797
140	0xbd6becbd	-0.057598818
141	0xbdd9d58b	-0.10636433
142	0xbe1ec6c6	-0.15505514
143	0xbaab9b1b	-0.001309249
144	0xbd24a18a	-0.04019312
145	0x3d94af92	0.0726005
146	0x3e0f5581	0.13997461
147	0x3d2ecdcf	0.042676743
148	0x3d7fc176	0.062440358
149	0xbd491ce7	-0.04909983
150	0xbd9caeac	-0.076505035
151	0x3c707282	0.014675738
152	0x3d88a03a	0.06671186
153	0xbd70d9f7	-0.058801617
154	0xbe6e7e2d	-0.2329032
155	0x3d138924	0.03601946
156	0x3ca3c6a1	0.019992175
157	0x3c6e0236	0.014526894
158	0x3dab09fb	0.08351513
159	0x3db6d2b5	0.08926908
160	0xbd8717fc	-0.065963715
161	0x3d40ab13	0.04703815
162	0xbc4c5b9c	-0.012473013
163	0x3c59a1e5	0.013283228
164	0x3d736581	0.059422974
165	0x3cc460a4	0.023971863
166	0xbdee7a1c	-0.11644384
167	0x3dbf4cdc	0.09340832
168	0xbd924db9	-0.07143731
169	0x3df038ca	0.11729582
170	0xbd2b5c30	-0.041835964
171	0xbd817795	-0.063216366
172	0xbe1d4683	-0.1535893
173	0xbc5ea05d	-0.013588038
174	0x3ddd48e3	0.10804918
175	0x3e234b06	0.15946588
176	0xbbfd948c	-0.0077386554
177	0xbd3f6de8	-0.046735674
178	0xbd44a742	-0.048011072
179	0xbdaaa64b	-0.08332499
180	0x3ca7572d	0.02042731
181	0xbda22476	-0.079171106
182	0x3d8fdebd	0.07024906
183	0xbd266fe1	-0.04063404
184	0x3d297e95	0.041380484
185	0x3d0454ea	0.032307543
186	0x3d195475	0.03743406
187	0x3d12b74f	0.035819348
188	0xbd08f889	-0.033440147
189	0x3dd70911	0.10499776
190	0x3d9b52b7	0.07584136
191	0x3da6bf10	0.08141911
192	0x3d90e5c0	0.07075071
193	0x3e8055d1	0.25065473
194	0xbe5931b4	-0.21210366
195	0x3d9c9dd9	0.076472946
196	0x3d9ead97	0.077479534
197	0x3d4316fc	0.04762934
198	0xbe879eb2	-0.26488262
199	0x3e049466	0.12947235
200	0x3d76e44d	0.06027632
201	0x3df6d7d1	0.120528825
202	0x3defd43f	0.117104046
203	0xbcb4da0c	-0.02207663
204	0xbdc74268	-0.09729463
205	0x3c87ec67	0.016592218
206	0xbd27b4fc	-0.040944085
207	0xbce56ebe	-0.028006908
208	0xbab5c3de	-0.0013867577
209	0xbcabdb23	-0.020978516
210	0xbd96851b	-0.073496066
211	0xbca17eef	-0.019713847
212	0x379295d1	1.747432e-05
213	0x3e7acdda	0.24492589
214	0xbc5afd61	-0.013366074
215	0xbe87d682	-0.26530844
216	0xbd42c22e	-0.047548465
217	0xbd935b5a	-0.07195158
218	0x3e08548b	0.133135
219	0x3e37f306	0.179638
220	0xbc988ec8	-0.01862277
221	0x3cc3210f	0.023819475
222	0xbc3747de	-0.011186568
223	0x3d00fee1	0.03149307
224	0xbe03ec04	-0.12883002
225	0x3c7cbaad	0.015425366
226	0x3d961ee6	0.07330112
227	0x3d84daeb	0.06487068
228	0x3db104ea	0.086435154
229	0xbd7a6ef3	-0.061140966
230	0x3d5b349b	0.053516965
231	0x3d5deb5e	0.05417954
232	0x3e1627df	0.14663647
233	0xbd3aee5c	-0.045637473
234	0xbe45f397	-0.19331203
235	0x3d98b75e	0.074568495
236	0x3d97403c	0.073852986
237	0xbd90d6f1	-0.07072247
238	0xbc593194	-0.013256449
239	0x3d3f0b94	0.0466419
240	0x3b92ed2b	0.004483839
241	0x3d02d087	0.03193715
242	0xbc30ad22	-0.010783466
243	0xbdfeac8e	-0.12435256
244	0x3dae74c6	0.085183665
245	0xbd9fb8cd	-0.0779892
246	0x3e032653	0.12807588
247	0xbe3feeaa	-0.18743387
248	0xbdbb2f0c	-0.09139833
249	0x3deeb6ef	0.116559856
250	0x3e436dc5	0.19084843
251	0x3c6e7a79	0.014555567
252	0xbdcd0298	-0.1001026
253	0x3dae7191	0.08517755
254	0x3dbf730a	0.09348114
255	0x3d0cc43c	0.03436683

bias f4 [16]
0	0xb81a5373	-3.679418e-05
1	0xb86c4712	-5.6332974e-05
2	0x3998b6f4	0.0002912801
3	0x39a4fe59	0.0003147002
4	0x38070122	3.2187563e-05
5	0xb8b5f4ce	-8.676351e-05
6	0xb7d36da5	-2.5204217e-05
7	0x393d8f6e	0.00018077876
8	0xb8d97e63	-0.00010370908
9	0x39542488	0.00020231504
10	0x396eb793	0.00022765835
11	0xb4fb8389	-4.6848098e-07
12	0x39ddc167	0.000422965
13	0x38ddcd2d	0.00010576318
14	0xb8a6e89c	-7.958824e-05
15	0x37eecf12	2.8468236e-05

weight f4 [16]
0	0x3f61f28a	0.8826071
1	0x3f791c98	0.97309256
2	0x3f80eb65	1.0071837
3	0x3f56ae6b	0.8385989
4	0x3f88c2f9	1.0684501
5	0x3f915333	1.1353515
6	0x3f692459	0.9107109
7	0x3f81a41e	1.012821
8	0x3f5ef0ea	0.87086356
9	0x3f888200	1.0664673
10	0x3f642673	0.8912117
11	0x3f95c754	1.1701455
12	0x3f8384ae	1.0274866
13	0x3f611271	0.87918764
14	0x3f7cbdc5	0.98727065
15	0x3f7387e0	0.95129204

bias f4 [16]
0	0x3e4a23fb	0.19740288
1	0x3e10ff5b	0.1415991
2	0x3e096401	0.13417055
3	0x3e8cf8c7	0.27533552
4	0xbcb8ae95	-0.022544185
5	0x3db5da6e	0.08879553
6	0x3e8ed246	0.278948
7	0x3e17f09e	0.14837882
8	0x3d8a3825	0.0674899
9	0x3db2f9bc	0.08739039
10	0x3e708558	0.23488367
11	0x3d29d32f	0.041461166
12	0x3e360f48	0.17779267
13	0x3e641475	0.22273429
14	0x3e04b4b3	0.12959556
15	0xbe45a739	-0.19302072

running_mean f4 [16]
0	0xbb84b6ee	-0.004050127
1	0xbb4b6e39	-0.003104104
2	0x3a6025f5	0.0008550578
3	0x3c43bbd4	0.011946637
4	0xbc03fa07	-0.008055217
5	0x39792982	0.00023761953
6	0x3b16dd24	0.0023019994
7	0x3bf654a6	0.007517415
8	0x3a9db25a	0.0012031302
9	0xbb25e869	-0.002531553
10	0x3c2f4493	0.010697502
11	0xbb8a26fa	-0.004216072
12	0x3b2ae015	0.0026073505
13	0xbb908a93	-0.0044110506
14	0x3be2847f	0.0069127674
15	0x3b9fb47c	0.0048738103

running_var f4 [16]
0	0x3e4721fb	0.19446556
1	0x3ead57a2	0.3385592
2	0x3e9f8e1d	0.3116311
3	0x3ee1bb67	0.4408829
4	0x3edae032	0.42749172
5	0x3e78a2bf	0.24280833
6	0x3e909c3d	0.282442
7	0x3ee88d55	0.45420328
8	0x3e9a4cfb	0.30136856
9	0x3e8206eb	0.25395903
10	0x3ea3c91a	0.31989366
11	0x3f038261	0.5137082
12	0x3e809c39	0.25119188
13	0x3e68c72d	0.2273223
14	0x3ec12f02	0.37731177
15	0x3eeb8b15	0.4600455

weight f4 [8, 16]
0	0x3d04d428	0.03242889
1	0xbb541d73	-0.0032366186
2	0x3bc5ab6e	0.006032399
3	0x3cac49a9	0.021031218
4	0xbe02fb98	-0.12791288
5	0x3b8bbeab	0.0042646728
6	0xbbf28672	-0.007401281
7	0x3b9c4b76	0.004769738
8	0xbe5e0035	-0.21679766
9	0xbb2cabf0	-0.00263476
10	0x3cc9e4f8	0.024645314
11	0xbf0a1022	-0.53930867
12	0xbbf92f5a	-0.0076045217
13	0x3c69017a	0.014221543
14	0x3bb81612	0.0056178654
15	0x3e1f966d	0.15584727
16	0x3db56e43	0.088589214
17	0xbb3e8ebc	-0.0029076776
18	0x3ac0a36b	0.001469714
19	0x3d7f4f51	0.0623315
20	0xba4ece1d	-0.00078889896
21	0x39af3c7e	0.0003342367
22	0xbeb66016	-0.35620183
23	0xbadfc082	-0.0017070922
24	0x3d03674d	0.032080937
25	0xbb2c2134	-0.0026264908
26	0x3d82616e	0.063662395
27	0x3b738e24	0.003716358
28	0xbeee7962	-0.46576983
29	0x3d9f1376	0.07767384
30	0xba95408f	-0.0011387038
31	0xbadf7314	-0.0017047846
32	0x3dac56ac	0.08414969
33	0xbc70afc0	-0.01469034
34	0xbc457039	-0.012050682
35	0xbeb47785	-0.35247436
36	0xbb33473f	-0.0027355698
37	0xbc3cd2c4	-0.01152486
38	0x3c8fc7b8	0.017551288
39	0xbc42cf5d	-0.01189026
40	0x3ca7d28e	0.020486142
41	0xbc8031c8	-0.015648738
42	0xbeca0f67	-0.39464876
43	0x3bef6ce1	0.0073066805
44	0x3c91e004	0.017807014
45	0x3d9d7efc	0.07690236
46	0xbc4ed26e	-0.012623413
47	0xbc517350	-0.01278384
48	0x3d03812b	0.032105606
49	0xbed0adfd	-0.40757743
50	0x3d0607fa	0.03272245
51	0x3cac89ec	0.02106186
52	0xbc923a5e	-0.017850097
53	0x3cfabadc	0.03060668
54	0x3c16c222	0.009201558
55	0x3c9d7b8d	0.019223953
56	0x3ddde076	0.10833828
57	0xbee39465	-0.44449154
58	0x3cc287e8	0.023746446
59	0x3cb0d9cb	0.021588227
60	0x3c2222db	0.0098960055
61	0x3cb3167f	0.021861313
62	0x3cac6cc6	0.021047961
63	0x3d33068e	0.043707423
64	0x3e24af11	0.16082408
65	0x3c94e921	0.01817757
66	0x3cae8f67	0.021308614
67	0x3e077064	0.13226467
68	0xbf11bdc6	-0.56930196
69	0x3c873a92	0.01650742
70	0x3da52baf	0.080649726
71	0x3c85fdaf	0.016356317
72	0x3e44b078	0.19207942
73	0x3c87cdc0	0.016577601
74	0x3e0892c5	0.13337238
75	0xbc758ccf	-0.014987185
76	0x3da06930	0.07832563
77	0x3e0b7c56	0.13621649
78	0x3c8e7617	0.017390294
79	0x3e445d1b	0.19176142
80	0x3d1f04aa	0.038822807
81	0x3ccf798e	0.025326516
82	0xbee6bc47	-0.4506552
83	0x3c9a4d91	0.018835815
84	0xbcee92e4	-0.029122777
85	0xbef57e10	-0.4794774
86	0x3c02dae5	0.007986759
87	0x3ca03a38	0.01955901
88	0x3e033726	0.12814006
89	0x3cd31880	0.025768518
90	0x3cc0cbbe	0.023534652
91	0x3cdb874f	0.026797919
92	0x3c074f2c	0.008258622
93	0x3c3da42e	0.011574788
94	0x3caa23e0	0.02076906
95	0x3d6441f6	0.055726968
96	0x3ced3153	0.028954184
97	0x3c5aad6c	0.013347011
98	0x3cbe1a40	0.023205876
99	0x3cb59815	0.022167245
100	0xbc9b6f2d	-0.018973911
101	0x3cae7c3e	0.021299478
102	0x3b03712e	0.0020056474
103	0xbeccfc19	-0.40036085
104	0x3dd58abe	0.104268536
105	0x3c5e76fd	0.013578174
106	0x3c895e3c	0.016768567
107	0x3cc534d4	0.024073042
108	0x3b0196d1	0.0019773731
109	0x3c73d316	0.01488187
110	0xbedce874	-0.43146098
111	0x3d4a7d54	0.04943593
112	0xbef3ffee	-0.47656196
113	0xbd27387c	-0.040825352
114	0xbd2255fa	-0.039632775
115	0x3dc2c57c	0.095103234
116	0xbba08dd8	-0.0048997216
117	0xbd2758d8	-0.040856212
118	0x3d0c9208	0.034318954
119	0xbd1be724	-0.03806223
120	0x3d40d28c	0.047075793
121	0xbd2eec63	-0.042705905
122	0x3dc6222e	0.09674488
123	0xbb585675	-0.0033010517
124	0x3d119fdb	0.03555284
125	0xbec6e242	-0.38844496
126	0xbd252b8a	-0.040324725
127	0xbd6ec1c2	-0.05829025

bias f4 [8]
0	0xb9f8317c	-0.00047339115
1	0x3988d67c	0.00026099745
2	0x3a5a532b	0.0008328433
3	0x39c1723d	0.00036896943
4	0xb89eebdb	-7.5779586e-05
5	0x38b6f3d7	8.723855e-05
6	0x396a5fc6	0.00022351657
7	0x3951b484	0.0001999904

weight f4 [8]
0	0x3f4cfc01	0.8007203
1	0x3f74dee7	0.9565262
2	0x3f7f1c31	0.9965239
3	0x3f750ff8	0.9572749
4	0x3f3ce6a4	0.7378943
5	0x3f78cf08	0.97190905
6	0x3f94cbf2	1.1624739
7	0x3f40c849	0.7530561

bias f4 [8]
0	0xbea334e0	-0.31876278
1	0xbe980f6b	-0.29699263
2	0xbeb26031	-0.34839013
3	0xbe981d62	-0.29709917
4	0x3cdb3c9d	0.026762301
5	0xbe91ed98	-0.28501582
6	0xbeeb5d12	-0.45969445
7	0xbe323ce2	-0.17406037

running_mean f4 [8]
0	0xbea77e16	-0.32713383
1	0xbe89252b	-0.2678617
2	0xbe8feb9f	-0.28109452
3	0xbe69d1af	-0.22833894
4	0x3e896082	0.26831442
5	0xbe825e96	-0.25462788
6	0xbe86b7ac	-0.26312006
7	0xbeb71403	-0.35757455

running_var f4 [8]
0	0x3e737dbe	0.23778436
1	0x3e9d6eaf	0.30748507
2	0x3e87ddff	0.26536557
3	0x3e8898bd	0.2667903
4	0x3ee3c2f7	0.44484684
5	0x3eb1d272	0.3473087
6	0x3e8bf29b	0.2733353
7	0x3edbd22b	0.42933783
